# Ultralytics YOLO 🚀, AGPL-3.0 license
# YOLOv8 object detection model with P3-P5 outputs. For Usage examples see https://docs.ultralytics.com/tasks/detect

# Parameters
nc: 1 # number of classes

activation: nn.ReLU()



# After change:
# filters: 256
# size: 3
# stride: 2
# activation: nn.LeakyReLU(0.1)  # Changed to LeakyReLU activation function

# scales: # model compound scaling constants, i.e. 'model=yolov8n.yaml' will call yolov8.yaml with scale 'n'
#   # [depth, width, max_channels]
#   n: [0.30, 0.20, 512] # YOLOv8n summary: 225 layers,  3157200 parameters,  3157184 gradients,   8.9 GFLOPs
#   s: [0.33, 0.50, 1024] # YOLOv8s summary: 225 layers, 11166560 parameters, 11166544 gradients,  28.8 GFLOPs
#   m: [0.67, 0.75, 768] # YOLOv8m summary: 295 layers, 25902640 parameters, 25902624 gradients,  79.3 GFLOPs
#   l: [1.00, 1.00, 512] # YOLOv8l summary: 365 layers, 43691520 parameters, 43691504 gradients, 165.7 GFLOPs
#   x: [1.00, 1.25, 512] # YOLOv8x summary: 365 layers, 68229648 parameters, 68229632 gradients, 258.5 GFLOPs



# # YOLOv8.0n backbone
# backbone:
#   # [from, repeats, module, args]
#   - [-1, 1, Conv, [64, 3, 2]] # 0-P1/2
#   - [-1, 1, DWConv, [128, 3, 2]] # 1-P2/4
#   - [-1, 3, C2f, [128, True]] #2
#   - [-1, 1, DWConv, [256, 3, 2]] # 3-P3/8
#   - [-1, 6, C2f, [256, True]] #4
#   - [-1, 1, DWConv, [512, 3, 2]] # 5-P4/16
#   - [-1, 6, C2f, [512, True]] #6
#   - [-1, 1, DWConv, [1024, 3, 2]] # 7-P5/32
#   - [-1, 3, C2f, [1024, True]] #8
#   - [-1, 1, SPPF, [512, 5]] # 9


# # YOLOv8.0n head
# head:
#   - [-1, 1, nn.Upsample, [None, 2, "nearest"]] #10
#   - [[-1, 6], 1, Concat, [1]] # cat backbone P4 #11
#   - [-1, 3, C2f, [512]] # 12

#   - [-1, 1, nn.Upsample, [None, 2, "nearest"]] #13
#   - [[-1, 4], 1, Concat, [1]] # cat backbone P3 #14
#   - [-1, 3, C2f, [256]] # 15 (P3/8-small)

#   - [-1, 1, DWConv, [256, 3, 2]] #16
#   - [[-1, 12], 1, Concat, [1]] # cat head P4 #17
#   - [-1, 3, C2f, [512]] # 18 (P4/16-medium)

#   - [-1, 1, DWConv, [512, 3, 2]] #19
#   - [[-1, 9], 1, Concat, [1]] # cat head P5 #20
#   - [-1, 3, C2f, [1024]] # 21 (P5/32-large)

#   - [[15, 18, 21], 1, Detect, [nc]] # Detect(P3, P4, P5) #22



# # Modified DW with predifined modeules
# backbone:
#   - [-1, 1, RepVGGDW, [64]]  # More efficient than standard DWConv
#   - [-1, 1, RepVGGDW, [128]]
#   - [-1, 3, C2fAttn, [128, True]]  # Improved feature extraction with attention
#   - [-1, 1, RepVGGDW, [256]]
#   - [-1, 6, C2fCIB, [256, True]]  # Contrastive learning for better feature discrimination
#   - [-1, 1, RepVGGDW, [512]]
#   - [-1, 6, C3Ghost, [512, True]]  # Ghost-like efficiency
#   - [-1, 1, RepVGGDW, [1024]]
#   - [-1, 3, C2fAttn, [1024, True]]
#   - [-1, 1, SPPELAN, [1024, 5]]  # Stronger feature aggregation than SPPF

# head:
#   - [-1, 1, nn.Upsample, [None, 2, "nearest"]]
#   - [[-1, 6], 1, Concat, [1]]
#   - [-1, 3, C2f, [512]]

#   - [-1, 1, nn.Upsample, [None, 2, "nearest"]]
#   - [[-1, 4], 1, Concat, [1]]
#   - [-1, 3, C2f, [256]]

#   - [-1, 1, DWConv, [256, 3, 2]]
#   - [[-1, 12], 1, Concat, [1]]
#   - [-1, 3, C2f, [512]]

#   - [-1, 1, DWConv, [512, 3, 2]]
#   - [[-1, 9], 1, Concat, [1]]
#   - [-1, 3, C2f, [1024]]

#   - [[15, 18, 21], 1, Detect, [nc]]



# SEBlock
# backbone:
#   - [-1, 1, DWConv, [64, 3, 2]] # 0-P1/2
#   - [-1, 1, nn.BatchNorm2d, []]
#   - [-1, 1, nn.SiLU, []]
#   - [-1, 1, SEBlock, [64]] # Squeeze-and-Excitation Block
#   - [-1, 1, DWConv, [128, 3, 2]] # 1-P2/4
#   - [-1, 1, nn.BatchNorm2d, []]
#   - [-1, 1, nn.SiLU, []]
#   - [-1, 3, GhostC2f, [128, True]] # GhostC2f with residual connections
#   - [-1, 1, DWConv, [256, 3, 2]] # 3-P3/8
#   - [-1, 1, nn.BatchNorm2d, []]
#   - [-1, 1, nn.SiLU, []]
#   - [-1, 6, GhostC2f, [256, True]]
#   - [-1, 1, DWConv, [512, 3, 2]] # 5-P4/16
#   - [-1, 1, nn.BatchNorm2d, []]
#   - [-1, 1, nn.SiLU, []]
#   - [-1, 6, GhostC2f, [512, True]]
#   - [-1, 1, DWConv, [1024, 3, 2]] # 7-P5/32
#   - [-1, 1, nn.BatchNorm2d, []]
#   - [-1, 1, nn.SiLU, []]
#   - [-1, 3, GhostC2f, [1024, True]]
#   - [-1, 1, GhostSPPF, [1024, 5]] # 9: GhostSPPF

# # PASS
# # # DW + Ghost
# backbone:
#   # [from, repeats, module, args]
#   - [-1, 1, DWConv, [64, 3, 2]] # 0-P1/2: Depthwise Convolution for lightweight initial feature extraction
#   - [-1, 1, DWConv, [128, 3, 2]] # 1-P2/4: Depthwise Convolution for efficient downsampling
#   - [-1, 3, GhostC2fskip, [128, True]] # Use Ghost Convolutions in C2f for feature richness
#   - [-1, 1, DWConv, [256, 3, 2]] # 3-P3/8: Depthwise Convolution for efficient downsampling
#   - [-1, 6, GhostC2fskip, [256, True]] # Ghost Convolutions in C2f for lightweight feature extraction
#   - [-1, 1, DWConv, [512, 3, 2]] # 5-P4/16: Depthwise Convolution for downsampling
#   - [-1, 6, GhostC2fskip, [512, True]] # Ghost Convolutions in C2f for richer mid-level features
#   - [-1, 1, DWConv, [1024, 3, 2]] # 7-P5/32: Depthwise Convolution for efficient downsampling
#   - [-1, 3, GhostC2fskip, [1024, True]] # Ghost Convolutions for high-level features
#   - [-1, 1, GhostSPPF, [1024, 5]] # 9: Ghost Convolutions in SPPF for high-level feature aggregation


# head:
#   - [-1, 1, nn.Upsample, [None, 2, "nearest"]]
#   - [[-1, 6], 1, Concat, [1]] # cat backbone P4
#   - [-1, 3, GhostC2f, [512]] # 12: Ghost Convolutions for lightweight feature processing

#   - [-1, 1, nn.Upsample, [None, 2, "nearest"]]
#   - [[-1, 4], 1, Concat, [1]] # cat backbone P3
#   - [-1, 3, GhostC2f, [256]] # 15: Ghost Convolutions for small-scale features (P3/8-small)

#   - [-1, 1, DWConv, [256, 3, 2]] # Depthwise Convolution for efficient downsampling
#   - [[-1, 12], 1, Concat, [1]] # cat head P4
#   - [-1, 3, GhostC2f, [512]] # 18: Ghost Convolutions for medium-scale features (P4/16-medium)

#   - [-1, 1, DWConv, [512, 3, 2]] # Depthwise Convolution for efficient downsampling
#   - [[-1, 9], 1, Concat, [1]] # cat head P5
#   - [-1, 3, GhostC2f, [1024]] # 21: Ghost Convolutions for large-scale features (P5/32-large)

#   - [[15, 18, 21], 1, Detect, [nc]] # Detect(P3, P4, P5)



# PASS working but it has Very high GLOPS 43.2 with 299 layers  
# high-accuracy model
# Backbone:
  # Use CBAM for channel and spatial attention.
  # Use ELAN1 for efficient feature aggregation.

# Head:
  # Use ContrastiveHead for better feature discrimination.
  # Use PSA for spatial attention.

# backbone:
#   - [-1, 1, DWConv, [64, 3, 2]] # 0-P1/2
#   - [-1, 1, DWConv, [128, 3, 2]] # 1-P2/4
#   - [-1, 3, ELAN1, [128, 128]] # 2: ELAN1
#   - [-1, 1, CBAM, [128]] # Add CBAM
#   - [-1, 1, DWConv, [256, 3, 2]] # 3-P3/8
#   - [-1, 6, ELAN1, [256, 256]] # 4: ELAN1
#   - [-1, 1, CBAM, [256]] # Add CBAM
#   - [-1, 1, DWConv, [512, 3, 2]] # 5-P4/16
#   # - [-1, 6, ELAN1, [512, 512]] # 6: ELAN1
#   # - [-1, 1, CBAM, [512]] # Add CBAM
#   - [-1, 1, DWConv, [1024, 3, 2]] # 7-P5/32
#   # - [-1, 3, ELAN1, [1024, 1024]] # 8: ELAN1
#   # - [-1, 1, CBAM, [1024]] # Add CBAM
#   - [-1, 1, GhostSPPF, [1024, 5]] # 9: SPPF

# head:
#   - [-1, 1, nn.Upsample, [None, 2, "nearest"]] # Upsample
#   - [[-1, 6], 1, Concat, [1]] # cat backbone P4
#   - [-1, 3, GhostC2f, [512]] # 12: C3Ghost
#   # - [-1, 1, ContrastiveHead, [512]] # Add ContrastiveHead

#   - [-1, 1, nn.Upsample, [None, 2, "nearest"]] # Upsample
#   - [[-1, 4], 1, Concat, [1]] # cat backbone P3
#   - [-1, 3, GhostC2f, [256]] # 15: C3Ghost
#   # - [-1, 1, ContrastiveHead, [256]] # Add ContrastiveHead

#   - [-1, 1, DWConv, [256, 3, 1]] # Depthwise Convolution
#   - [[-1, 12], 1, Concat, [1]] # cat head P4
#   - [-1, 3, GhostC2f, [512]] # 18: C3Ghost
#   # - [-1, 1, PSA, [512,8]] # Add PSA

#   - [-1, 1, DWConv, [512, 3, 1]] # Depthwise Convolution
#   - [[-1, 9], 1, Concat, [1]] # cat head P5
#   - [-1, 3, GhostC2f, [1024]] # 21: C3Ghost
#   # - [-1, 1, PSA, [1024,8]] # Add PSA

#   - [[15, 18, 21], 1, Detect, [nc]] # Detect(P3, P4, P5)

# PASS . it contains 16.6 glops with 439 layers 
# Balanced Model (Accuracy + Speed)
# Backbone:
  # Use C3Ghost for lightweight feature extraction.
  # Use CBAM for attention.

# Head:
  # Use DFL for localization.
  # Use PSA for spatial attention.


# backbone:
#   - [-1, 1, DWConv, [64, 3, 2]] # 0-P1/2
#   - [-1, 1, DWConv, [128, 3, 2]] # 1-P2/4
#   - [-1, 3, C3Ghost, [128, True]] # 2: C3Ghost
#   - [-1, 1, CBAM, [128]] # Add CBAM
#   - [-1, 1, DWConv, [256, 3, 2]] # 3-P3/8
#   - [-1, 6, C3Ghost, [256, True]] # 4: C3Ghost
#   - [-1, 1, CBAM, [256]] # Add CBAM
#   - [-1, 1, DWConv, [512, 3, 2]] # 5-P4/16
#   - [-1, 6, C3Ghost, [512, True]] # 6: C3Ghost
#   - [-1, 1, CBAM, [512]] # Add CBAM
#   - [-1, 1, DWConv, [1024, 3, 2]] # 7-P5/32
#   - [-1, 3, C3Ghost, [1024, True]] # 8: C3Ghost
#   - [-1, 1, CBAM, [1024]] # Add CBAM
#   - [-1, 1, SPPF, [1024, 5]] # 9: SPPF

# head:
#   - [-1, 1, nn.Upsample, [None, 2, "nearest"]] # Upsample
#   - [[-1, 6], 1, Concat, [1]] # cat backbone P4
#   - [-1, 3, C3Ghost, [512]] # 12: C3Ghost
#   # - [-1, 1, DFL, [512]] # Add DFL

#   - [-1, 1, nn.Upsample, [None, 2, "nearest"]] # Upsample
#   - [[-1, 4], 1, Concat, [1]] # cat backbone P3
#   - [-1, 3, C3Ghost, [256]] # 15: C3Ghost
#   # - [-1, 1, DFL, [256]] # Add DFL
#   # - [-1, 1, PSA, [256,8]] # Add PSA

#   - [-1, 1, DWConv, [256, 3, 2]] # Depthwise Convolution
#   - [[-1, 12], 1, Concat, [1]] # cat head P4
#   - [-1, 3, C3Ghost, [512]] # 18: C3Ghost
#   # - [-1, 1, PSA, [512,8]] # Add PSA

#   - [-1, 1, DWConv, [512, 3, 2]] # Depthwise Convolution
#   - [[-1, 9], 1, Concat, [1]] # cat head P5
#   - [-1, 3, C3Ghost, [1024]] # 21: C3Ghost
#   - [-1, 1, PSA, [1024,8]] # Add PSA

#   - [[15, 18, 21], 1, Detect, [nc]] # Detect(P3, P4, P5)


# backbone:
#   - [-1, 1, DWConv, [64, 3, 2]] # 0-P1/2
#   - [-1, 1, DWConv, [128, 3, 2]] # 1-P2/4
#   - [-1, 3, GhostC2fskip, [128, True]] # 2: C3Ghost
#   - [-1, 1, CBAM, [128]] # Add CBAM
#   - [-1, 1, DWConv, [256, 3, 2]] # 3-P3/8
#   - [-1, 6, GhostC2fskip, [256, True]] # 4: C3Ghost
#   - [-1, 1, CBAM, [256]] # Add CBAM
#   - [-1, 1, DWConv, [512, 3, 2]] # 5-P4/16
#   - [-1, 6, GhostC2fskip, [512, True]] # 6: C3Ghost
#   - [-1, 1, CBAM, [512]] # Add CBAM
#   - [-1, 1, DWConv, [1024, 3, 2]] # 7-P5/32
#   - [-1, 3, GhostC2fskip, [1024, True]] # 8: C3Ghost
#   - [-1, 1, CBAM, [1024]] # Add CBAM
#   - [-1, 1, SPPF, [1024, 5]] # 9: SPPF

# head:
#   - [-1, 1, nn.Upsample, [None, 2, "nearest"]] # Upsample
#   - [[-1, 6], 1, Concat, [1]] # cat backbone P4
#   - [-1, 3, GhostC2f, [512]] # 12: C3Ghost
#   # - [-1, 1, DFL, [512]] # Add DFL

#   - [-1, 1, nn.Upsample, [None, 2, "nearest"]] # Upsample
#   - [[-1, 4], 1, Concat, [1]] # cat backbone P3
#   - [-1, 3, GhostC2f, [256]] # 15: C3Ghost
#   # - [-1, 1, DFL, [256]] # Add DFL
#   # - [-1, 1, PSA, [256,8]] # Add PSA

#   - [-1, 1, DWConv, [256, 3, 2]] # Depthwise Convolution
#   - [[-1, 12], 1, Concat, [1]] # cat head P4
#   - [-1, 3, GhostC2f, [512]] # 18: C3Ghost
#   # - [-1, 1, PSA, [512,8]] # Add PSA

#   - [-1, 1, DWConv, [512, 3, 2]] # Depthwise Convolution
#   - [[-1, 9], 1, Concat, [1]] # cat head P5
#   - [-1, 3, GhostC2f, [1024]] # 21: C3Ghost
#   - [-1, 1, PSA, [1024,8]] # Add PSA

#   - [[15, 18, 21], 1, Detect, [nc]] # Detect(P3, P4, P5)





# #lighter removed P5 from above 16 gf
# backbone:
#   - [-1, 1, DWConv, [64, 3, 2]]  # 0-P1/2
#   - [-1, 1, DWConv, [128, 3, 2]] # 1-P2/4
#   - [-1, 3, C3Ghost, [128, True]] # 2: C3Ghost
#   - [-1, 1, CBAM, [128]] # Add CBAM
#   - [-1, 1, DWConv, [256, 3, 2]] # 3-P3/8
#   - [-1, 6, C3Ghost, [256, True]] # 4: C3Ghost
#   - [-1, 1, CBAM, [256]] # Add CBAM
#   - [-1, 1, DWConv, [512, 3, 2]] # 5-P4/16
#   - [-1, 6, C3Ghost, [512, True]] # 6: C3Ghost
#   - [-1, 1, CBAM, [512]] # Add CBAM
#   - [-1, 1, SPPF, [512, 5]] # 7: SPPF (reduced from 1024 to 512)

# head:
#   - [-1, 1, nn.Upsample, [None, 2, "nearest"]] # Upsample
#   - [[-1, 4], 1, Concat, [1]] # cat backbone P3
#   - [-1, 3, C3Ghost, [256]] # 9: C3Ghost

#   - [-1, 1, DWConv, [256, 3, 2]] # Depthwise Convolution
#   - [[-1, 6], 1, Concat, [1]] # cat head P4
#   - [-1, 3, C3Ghost, [512]] # 12: C3Ghost

#   - [[9, 12], 1, Detect, [nc]] # Detect(P3, P4)







# custom_n.yaml single scale fully reduced model
# YOLOv8-style lightweight custom model (nano baseline, slightly widened)
nc: 1            # number of classes
depth_multiple: 0.33
width_multiple: 0.32  # slightly wider than vanilla n (was ~0.28)
backbone:
  # [from, number, module, args]
  - [-1, 1, Conv, [3, 16, 3, 2]]
  - [-1, 1, DWConv, [16, 32, 3, 2]]
  - [-1, 1, GhostC2fskip, [32, 32, 1, True]]
  - [-1, 1, ECA, [32]]    # replace heavy CBAM with ECA
  - [-1, 1, DWConv, [32, 56, 3, 2]]
  - [-1, 2, GhostC2fskip, [56, 56, 2, True]]
  - [-1, 1, ECA, [56]]
  - [-1, 1, DWConv, [56, 104, 3, 2]]
  - [-1, 2, GhostC2fskip, [104, 104, 2, True]]
  - [-1, 1, ECA, [104]]
  - [-1, 1, SPPF, [104, 104, 5]]

head:
  - [-1, 1, Upsample, [None, 2, 'nearest']]
  - [-1, 1, Concat, [1]]
  - [-1, 1, GhostC2f, [160, 104, 1]]
  - [-1, 1, Upsample, [None, 2, 'nearest']]
  - [-1, 1, Concat, [1]]
  - [-1, 1, GhostC2f, [160, 56, 1]]
  - [-1, 1, DWConv, [56, 56, 3, 2]]
  - [-1, 1, Concat, [1]]
  - [-1, 1, GhostC2f, [160, 104, 1]]
  - [-1, 1, DWConv, [104, 104, 3, 2]]
  - [-1, 1, Concat, [1]]
  - [-1, 1, GhostC2f, [208, 104, 1]]
  - [-1, 1, Detect, [nc, [160, 160, 160]]]



# # yolov8_lite_pan.yaml
# nc: 1
# depth_multiple: 0.33
# width_multiple: 0.50   # tune 0.45–0.60 for speed/accuracy tradeoff

# backbone:
#   # [from, n, module, args]
#   - [-1, 1, Conv,     [3,  32, 3, 2]]          # 0-P1/2
#   - [-1, 1, DWConv,   [64, 3, 2]]              # 1-P2/4
#   - [-1, 2, GhostC2f, [64, True]]              # 2
#   - [-1, 1, ECA,      [64]]                    # 3
#   - [-1, 1, DWConv,   [128, 3, 2]]             # 4-P3/8
#   - [-1, 3, GhostC2f, [128, True]]             # 5
#   - [-1, 1, ECA,      [128]]                   # 6
#   - [-1, 1, DWConv,   [256, 3, 2]]             # 7-P4/16
#   - [-1, 3, GhostC2f, [256, True]]             # 8
#   - [-1, 1, ECA,      [256]]                   # 9
#   - [-1, 1, DWConv,   [512, 3, 2]]             # 10-P5/32
#   - [-1, 1, GhostC2f, [512, True]]             # 11
#   - [-1, 1, SPPF,     [512, 5]]                # 12 (P5 out)

# head:
#   # Top-down path
#   - [-1, 1, Upsample, [None, 2, 'nearest']]    # 13: up P5->P4
#   - [[-1, 9], 1, Concat, [1]]                  # 14: cat with P4
#   - [-1, 2, GhostC2f, [256]]                   # 15: P4 fused
#   - [-1, 1, ECA,      [256]]                   # 16

#   - [-1, 1, Upsample, [None, 2, 'nearest']]    # 17: up P4->P3
#   - [[-1, 6], 1, Concat, [1]]                  # 18: cat with P3
#   - [-1, 2, GhostC2f, [128]]                   # 19: P3 fused (head small)
#   - [-1, 1, ECA,      [128]]                   # 20

#   # Bottom-up path
#   - [-1, 1, DWConv,   [128, 3, 2]]             # 21: down P3->P4
#   - [[-1, 16], 1, Concat, [1]]                 # 22: fuse with P4
#   - [-1, 2, GhostC2f, [256]]                   # 23: P4 refined
#   - [-1, 1, ECA,      [256]]                   # 24

#   - [-1, 1, DWConv,   [256, 3, 2]]             # 25: down P4->P5
#   - [[-1, 12], 1, Concat, [1]]                 # 26: fuse with P5
#   - [-1, 2, GhostC2f, [512]]                   # 27: P5 refined
#   - [-1, 1, ECA,      [512]]                   # 28

#   # Detect heads on P3, P4, P5
#   - [[20, 24, 28], 1, Detect, [nc]]            # 29: Detect(P3, P4, P5)



# # yolov8_eca_bifpn.yaml
# nc: 1
# depth_multiple: 0.33
# width_multiple: 0.50

# backbone:
#   # [from, n, module, args]
#   - [-1, 1, Conv,     [3,  32, 3, 2]]          # 0-P1/2
#   - [-1, 1, DWConv,   [64, 3, 2]]              # 1-P2/4
#   - [-1, 2, GhostC2f, [64, True]]              # 2
#   - [-1, 1, ECA,      [64]]                    # 3
#   - [-1, 1, DWConv,   [128, 3, 2]]             # 4-P3/8
#   - [-1, 3, GhostC2f, [128, True]]             # 5
#   - [-1, 1, ECA,      [128]]                   # 6
#   - [-1, 1, DWConv,   [256, 3, 2]]             # 7-P4/16
#   - [-1, 3, GhostC2f, [256, True]]             # 8
#   - [-1, 1, ECA,      [256]]                   # 9
#   - [-1, 1, DWConv,   [512, 3, 2]]             # 10-P5/32
#   - [-1, 1, GhostC2f, [512, True]]             # 11
#   - [-1, 1, ECA,      [512]]                   # 12
#   - [-1, 1, SPPF,     [512, 5]]                # 13: output (P5)

# # BiFPN-Lite neck
# head:
#   # Top-down fusion
#   - [[13, 9], 1, WeightedAdd, [256]]           # 14: Fuse P5 & P4
#   - [-1, 1, DWConv, [256, 3, 1]]               # 15
#   - [-1, 1, ECA, [256]]                        # 16
#   - [-1, 1, Upsample, [None, 2, 'nearest']]    # 17: up -> P3 scale
#   - [[-1, 6], 1, WeightedAdd, [128]]           # 18: Fuse with P3
#   - [-1, 1, DWConv, [128, 3, 1]]               # 19
#   - [-1, 1, ECA, [128]]                        # 20

#   # Bottom-up fusion
#   - [-1, 1, DWConv, [128, 3, 2]]               # 21: down -> P4
#   - [[-1, 16], 1, WeightedAdd, [256]]          # 22: fuse with P4
#   - [-1, 1, DWConv, [256, 3, 1]]               # 23
#   - [-1, 1, ECA, [256]]                        # 24
#   - [-1, 1, DWConv, [256, 3, 2]]               # 25: down -> P5
#   - [[-1, 13], 1, WeightedAdd, [512]]          # 26: fuse with P5
#   - [-1, 1, DWConv, [512, 3, 1]]               # 27
#   - [-1, 1, ECA, [512]]                        # 28

#   # Detection heads (3 scales)
#   - [[20, 24, 28], 1, Detect, [nc]]
